model.pth (torch, 114088 bytes, 7 tensors)

conv1.weight f4 [32, 3, 3, 3]
0	0xbc0cfa0e	-0.00860454
1	0x3d9c060d	0.076183416
2	0x3df56c01	0.11983491
3	0x3dedcf10	0.1161176
4	0x3e497fe1	0.19677688
5	0xbe12248e	-0.14271757
6	0xbe0a30a3	-0.13495116
7	0x3d3f09f9	0.04664037
8	0xbd1f9088	-0.038956195
9	0x3cbecaab	0.023289999
10	0x3e6cfe1d	0.23143812
11	0x3e27cfe9	0.16387905
12	0x3d5b6021	0.053558473
13	0x3e216966	0.15762863
14	0xbd72192a	-0.05910603
15	0xbcef65cf	-0.02922335
16	0x3da8c1ab	0.08240064
17	0x3e5dd21d	0.21662183
18	0x3bf5053f	0.007477432
19	0x3e78869f	0.24270104
20	0x3e367190	0.17816758
21	0x3e7bbef9	0.24584569
22	0x3d80fefc	0.062986344
23	0x3e0215c0	0.1270361
24	0x3db89279	0.090123124
25	0x3e665e6a	0.22496954
26	0x3e4363ad	0.19080992
27	0xbc158c1a	-0.009127641
28	0xbe876178	-0.2644155
29	0xbdfc5bf7	-0.123222284
30	0x3db0e7d1	0.086379655
31	0xbe94022d	-0.2890791
32	0x3dafd012	0.08584608
33	0xbd8c85b8	-0.06861442
34	0xbcc8ad00	-0.024496555
35	0x3de84130	0.113405585
36	0x3e1b26ee	0.15151569
37	0xbdba391f	-0.09092926
38	0x3e580680	0.2109623
39	0xbdb74ccc	-0.08950195
40	0x3e06d446	0.13166913
41	0x3e0a7001	0.13519289
42	0x3e604afb	0.21903603
43	0xbe21f795	-0.15817101
44	0xbd927849	-0.07151849
45	0x3e178b21	0.14799167
46	0x3e10e738	0.14150703
47	0xbda8c387	-0.08240419
48	0xbc919574	-0.01777146
49	0xbd000885	-0.031258125
50	0x3e15a556	0.14613852
51	0x3d096024	0.033538952
52	0x3d4e5add	0.050379623
53	0x3db38fe0	0.08767676
54	0xbd36494d	-0.0445035
55	0xbdeeddba	-0.11663385
56	0xbd5ad6f7	-0.053427663
57	0x3d91a7b8	0.07112068
58	0xbd6641ac	-0.056214973
59	0xbe0c8e96	-0.13726267
60	0x3dffb345	0.12485365
61	0xbca4afbf	-0.020103334
62	0xbd074c77	-0.033031907
63	0xb9870ed1	-0.00025760246
64	0x3e782bb3	0.2423542
65	0x3dc0a700	0.09406853
66	0xbd0b9d95	-0.03408583
67	0xbdc00d43	-0.093775295
68	0x3e4d8380	0.20069695
69	0x3ca8fd78	0.020628676
70	0x3d71fc3c	0.05907844
71	0xbd846184	-0.06463912
72	0xbe0ffc04	-0.1406098
73	0x3e485f15	0.19567521
74	0xbcf7ea48	-0.030263081
75	0xbe17d8db	-0.14828818
76	0xbe07f2e5	-0.1327625
77	0x3da977d2	0.08274807
78	0x3e05deec	0.13073319
79	0x3dbed5b4	0.093181044
80	0x3db2c664	0.08729246
81	0x3d1bbf8d	0.038024474
82	0x3c40c9d1	0.011766867
83	0xbd760656	-0.060064636
84	0xbe314c21	-0.17314197
85	0x3e01264c	0.12612265
86	0x3da9bd5d	0.08288071
87	0xbcffaf61	-0.031211557
88	0xbe0c3b32	-0.13694456
89	0xbe289429	-0.16462769
90	0x3d2b6103	0.041840564
91	0x3e8d6a5d	0.2762021
92	0x3e5d727d	0.21625705
93	0x3e63e30b	0.22254579
94	0x3e16f7fd	0.14743038
95	0x3e4a9a29	0.1978537
96	0x3e82d3ea	0.25552303
97	0x3ea3df46	0.32006282
98	0x3e8e2427	0.27761957
99	0xbe6b410c	-0.22974032
100	0xbd4640fa	-0.04840181
101	0xbe510689	-0.20412649
102	0xbe0e0993	-0.1387084
103	0x3be4254a	0.006962453
104	0xbca82da1	-0.02052957
105	0xbe3ede82	-0.18639567
106	0xbe0696bb	-0.13143437
107	0xbdb95001	-0.09048463
108	0x3d6b5d97	0.0574623
109	0x3dfc5288	0.12320429
110	0xbe20458f	-0.15651534
111	0x3d2f7265	0.042833705
112	0x3e086152	0.13318375
113	0x3c2ce1c5	0.0105518745
114	0x3d9005f5	0.07032386
115	0xbe48cce3	-0.19609408
116	0xbe539879	-0.20663632
117	0xbe0a80e4	-0.1352573
118	0xbe0c794c	-0.13718146
119	0xbdbfe01a	-0.09368916
120	0x3e21cb42	0.15800193
121	0xbd0826bc	-0.033240065
122	0xbd92b2f4	-0.07163039
123	0xbbe9367f	-0.007117092
124	0x3db9d2aa	0.09073384
125	0xbdc1b773	-0.09458818
126	0x3dd790fa	0.10525699
127	0x3e3d9447	0.18513595
128	0xbe0c37f6	-0.13693222
129	0xbd0d4813	-0.034492563
130	0x3bb4c51c	0.0055166613
131	0x3d145db6	0.036222182
132	0x3d9d08f3	0.076677226
133	0x3e0a1af0	0.13486838
134	0x3e4b5154	0.19855243
135	0xbca29206	-0.01984502
136	0xbe5fc21c	-0.2185139
137	0x3d2d9ad2	0.042383976
138	0xbb95442b	-0.0045552454
139	0xbe3c5c93	-0.1839469
140	0x3de5ffe0	0.11230445
141	0x3e066301	0.13123704
142	0xbe31c92f	-0.17361902
143	0xbe1b8f5f	-0.1519141
144	0x3e28fd40	0.16502857
145	0xbde314d1	-0.11087955
146	0xbe3016fb	-0.17196266
147	0x3e88ca4e	0.26716846
148	0x3d335e7f	0.04379129
149	0x3e34d321	0.17658664
150	0x3e790da9	0.24321617
151	0x3c81e3d9	0.015855717
152	0xbdd71635	-0.105022825
153	0x3d14b77f	0.036307808
154	0xbe23ab2c	-0.15983266
155	0xbd40ea80	-0.047098637
156	0x3e951742	0.29119307
157	0x3e01781f	0.12643479
158	0xbe121f7a	-0.1426982
159	0x3e26d360	0.1629157
160	0xbe46932c	-0.19392079
161	0xbe5a0736	-0.21291813
162	0xbe04549b	-0.129229
163	0x3db1a12b	0.086733185
164	0xbe761428	-0.24031126
165	0x3d210350	0.0393098
166	0x3e838f5d	0.25695315
167	0x3cf599ed	0.029980624
168	0xbd8e5337	-0.06949466
169	0xbbb09bb4	-0.005389655
170	0xbc826bf3	-0.015920615
171	0xbe1014db	-0.14070456
172	0x3dfe84f4	0.124277025
173	0xbe568094	-0.20947486
174	0x3d418289	0.04724363
175	0x3e87af29	0.26500824
176	0x3d2d7f3a	0.04235766
177	0xbdb90829	-0.090347596
178	0x3e178337	0.14796148
179	0xbe60dcad	-0.21959181
180	0xbda5438d	-0.08069525
181	0x3e4dc0ee	0.20093128
182	0xbe186ea8	-0.14885962
183	0x3c0d771d	0.008634356
184	0x3e66896b	0.22513358
185	0xbbbc1ec7	-0.0057409736
186	0xbd3f59d6	-0.046716534
187	0x3dbf7e3d	0.0935025
188	0xbe1a473c	-0.15066236
189	0x3cc71b80	0.024305105
190	0xbdeb4e4c	-0.11489543
191	0x3b47dc89	0.003049644
192	0xbde6731f	-0.11252426
193	0xbe3f7d0f	-0.1870005
194	0xbd83edff	-0.064418785
195	0x3e1b1166	0.15143356
196	0x3d753bcc	0.05987148
197	0xbdebb9bf	-0.11510038
198	0x3e07107b	0.1318988
199	0xbdae0e0e	-0.084987745
200	0xbce46792	-0.027881417
201	0x3e0be790	0.13662553
202	0x3e27625d	0.16346116
203	0x3bf198b3	0.0073729395
204	0xbdf2a1ad	-0.118472435
205	0x3e13686b	0.14395301
206	0xbdabe398	-0.083930194
207	0x3e2ebc8f	0.17064117
208	0x3dcd1ce0	0.10015273
209	0x3dea7574	0.11448184
210	0x3e41381e	0.18869063
211	0x3e386a6f	0.18009351
212	0x3e608f42	0.21929649
213	0x3e33965d	0.17537828
214	0x3d73c1a7	0.059510853
215	0x3c954bfd	0.01822471
216	0xbc9554a2	-0.018228833
217	0xbe1f65c9	-0.15566172
218	0xbe397934	-0.18112642
219	0xbe0ec95c	-0.13944
220	0xbe6f1165	-0.23346479
221	0x3cf03255	0.029320875
222	0xbb4e7ec2	-0.003150866
223	0x3dc82a16	0.09773652
224	0x3d0bf24a	0.03416661
225	0x3e113a5f	0.14182423
226	0xbdcafac8	-0.09911114
227	0x3e4d9c96	0.20079264
228	0x3e112732	0.14175108
229	0x3e0c17d5	0.13680966
230	0xbdca8178	-0.098879755
231	0x3d9eb129	0.07748634
232	0xbe005de5	-0.12535818
233	0x3e0723cb	0.13197248
234	0x3e0fad01	0.1403084
235	0x3e1ed9ad	0.15512724
236	0x3d6a0bc5	0.05714013
237	0xbd214892	-0.03937585
238	0xbe078001	-0.13232423
239	0x3e60ddf2	0.21959665
240	0x3d75323c	0.05986236
241	0xbdc86c36	-0.097862646
242	0x3cb9b82a	0.022670824
243	0xbe3a42c7	-0.18189536
244	0x3d05a245	0.032625455
245	0xbbf8f80e	-0.00759793
246	0xbdccb599	-0.099955745
247	0x3e3efcab	0.18651073
248	0xbdcf083a	-0.10108991
249	0x3e55878c	0.20852488
250	0xbdd7db74	-0.10539904
251	0xbdd10e88	-0.1020785
252	0x3d3721ee	0.044710092
253	0x3e21bc5d	0.15794511
254	0x3b0828a1	0.002077617
255	0xbcee8b0a	-0.029119033

conv1.bias f4 [32]
0	0xbd5bf167	-0.053697016
1	0x3e97e204	0.29664624
2	0x3e8d5d50	0.27610254
3	0xbcb3a2e8	-0.021928266
4	0x3da851d7	0.08218735
5	0xbc68da53	-0.014212209
6	0xbb9656a0	-0.004587963
7	0x3d0ac93d	0.033883322
8	0x3e9865cf	0.29765174
9	0x3da16637	0.07880824
10	0x3e1ad4fe	0.15120313
11	0x3e66dc87	0.22545062
12	0x3db7dd08	0.08977705
13	0xbe393a5f	-0.18088673
14	0x3e2705ff	0.16310881
15	0xbe3a200a	-0.18176284
16	0xbdf1fff8	-0.118164
17	0xbe15ac68	-0.14616549
18	0xbcc543c6	-0.024080168
19	0xbe174c53	-0.14775209
20	0x3dc1bd41	0.094599254
21	0x3df4640b	0.11933144
22	0x3e8682ed	0.26271763
23	0xbc1dc6cb	-0.0096299155
24	0x3df95d16	0.12175958
25	0x3e4c5c4d	0.19957085
26	0x3d8f0e58	0.06985158
27	0xbd7ecab9	-0.06220505
28	0xbe06d16a	-0.13165823
29	0x3e6526a6	0.22378024
30	0x3e2acdc9	0.16680063
31	0xbd4a412e	-0.049378566

conv2.weight f4 [64, 32, 3, 3]
0	0x3c8fce0d	0.017554307
1	0x3da1da13	0.079029225
2	0xbc70e572	-0.0147031415
3	0x3aeff5e1	0.001830753
4	0x3bbfaa4b	0.005849158
5	0x3c509fb8	0.012733392
6	0x3d86899e	0.06569217
7	0x3d92f51f	0.071756594
8	0x3da0398b	0.078234755
9	0x3d8357ed	0.06413255
10	0xbc261d46	-0.010138815
11	0x3d49c470	0.049259603
12	0x3cb0d99f	0.021588145
13	0x3d8baaf0	0.06819713
14	0x3d36a830	0.04459399
15	0xbca94cef	-0.020666568
16	0xbcaf02d7	-0.021363659
17	0x3d7669ae	0.060159378
18	0x3d623f31	0.055236045
19	0x3c783f79	0.015151852
20	0x3d5d13fc	0.053974137
21	0xbd207ef8	-0.039183587
22	0xbd0158f2	-0.031578965
23	0x3cc83cd7	0.024443073
24	0x3d898ebe	0.06716679
25	0x3d03e1b7	0.03219768
26	0x3d88d48e	0.066811666
27	0xbd69bc4e	-0.057064347
28	0xbc9b5ddd	-0.018965656
29	0x3d227b77	0.039668527
30	0xbcc17678	-0.02361606
31	0xbcf85969	-0.030316072
32	0xbbcf6f12	-0.0063303793
33	0x3c79d25c	0.0152479075
34	0x3d31357f	0.04326391
35	0xbcf73eea	-0.030181367
36	0x3ac1d16f	0.0014787148
37	0xbda191a2	-0.078891054
38	0xbd02ce8e	-0.031935267
39	0x3c1d529b	0.009602214
40	0xb9418056	-0.00018453723
41	0xbdcae4a3	-0.0990689
42	0xbd03040f	-0.031986292
43	0xbdc554ff	-0.09635352
44	0xbd9df111	-0.077119954
45	0xbd8b3ab9	-0.0679831
46	0xbd8dab33	-0.06917419
47	0xbe0bd03b	-0.13653652
48	0xbdf779d5	-0.120837845
49	0xbd9e4cdc	-0.077295035
50	0xbe363e42	-0.17797187
51	0xbdb09be5	-0.086234845
52	0xbdcd0eca	-0.100125864
53	0xbe25c872	-0.16189745
54	0xbdcf333c	-0.10117194
55	0xbe22d425	-0.15901239
56	0xbdb33b56	-0.08751552
57	0xbd0e4fa4	-0.03474392
58	0xbdcc8923	-0.09987094
59	0xbda53173	-0.08066072
60	0xbddd5964	-0.108080655
61	0xbe19e287	-0.1502782
62	0xbe3733db	-0.17890875
63	0x3d6dbb83	0.058040153
64	0x3c117f42	0.008880438
65	0x3b1829a4	0.002321818
66	0x3d968ec6	0.073514506
67	0xbcecc413	-0.02890209
68	0x3bfd4acf	0.007729865
69	0xbb8dad24	-0.0043236185
70	0x3bd8df01	0.006618381
71	0xbc136f24	-0.008998666
72	0x3c65e70b	0.014032136
73	0xbc238920	-0.009981424
74	0x3d640e1a	0.05567751
75	0x3d1b3ee4	0.037901774
76	0x3ca226b7	0.019793851
77	0x3d5056c5	0.050864
78	0xbc6b2a75	-0.014353384
79	0x3d1aa957	0.03775915
80	0xbc7d7fb4	-0.015472341
81	0x3bf69d09	0.0075260443
82	0xbddd427d	-0.10803697
83	0xbe1be85c	-0.15225357
84	0x3cd60f34	0.026130296
85	0xbdc53322	-0.096288934
86	0xbdcd44e3	-0.10022905
87	0x3c868869	0.016422467
88	0xbcc00f80	-0.023444891
89	0xbd500de9	-0.050794516
90	0x3beaa206	0.007160428
91	0x3d2c3a7e	0.04204797
92	0xbb13a03b	-0.0022525925
93	0x3d811af6	0.063039705
94	0x3da06de7	0.07833462
95	0x3d5b3b07	0.05352309
96	0x3a52cb6b	0.0008041176
97	0x3d099e6d	0.033598352
98	0xbc1c64c7	-0.009545512
99	0xbd3c037e	-0.045901768
100	0xbdcd821c	-0.10034582
101	0xbda8982f	-0.08232152
102	0xbc925d93	-0.017866885
103	0xbd34432f	-0.044009384
104	0xbb919b3f	-0.0044435556
105	0xbdc17812	-0.0944673
106	0xbd9cb776	-0.0765218
107	0xbc34d2d6	-0.011036595
108	0xbdd2e8bd	-0.102982976
109	0xbda2ab91	-0.0794288
110	0xbc9ac72c	-0.0188938
111	0xbddec213	-0.108768605
112	0xbc90d426	-0.017679285
113	0xbd306aaa	-0.043070473
114	0xbda28549	-0.079355784
115	0xbd8de16e	-0.06927763
116	0xbd14977b	-0.036277276
117	0x3abfab82	0.0014623257
118	0x3d8574fb	0.06516453
119	0x3c110489	0.008851179
120	0xbb050c7a	-0.0020301626
121	0x3cb524ba	0.02211224
122	0x3dcdbcfb	0.10045811
123	0x3d74a1c8	0.0597246
124	0x3c190884	0.009340409
125	0x3d9acece	0.07558976
126	0xbd0f12c9	-0.034930024
127	0xbd959e6f	-0.073056094
128	0x3cfb10ff	0.030647753
129	0xbd42759e	-0.04747545
130	0xbd052b1b	-0.03251181
131	0xbd77e6b4	-0.06052275
132	0x3cf5da0a	0.030011196
133	0x3d40131e	0.04689323
134	0x3c17e239	0.009270244
135	0x3ddfa970	0.109209895
136	0x3d203632	0.039114185
137	0x3d5bcf4e	0.053664498
138	0x3d8ea95f	0.06965899
139	0x3d55658b	0.052098792
140	0x3de3a84c	0.111160845
141	0x3cdabe5d	0.0267021
142	0x3d8146b6	0.06312315
143	0x3d8d3179	0.06894202
144	0xbd26deee	-0.040739946
145	0xbc51b48b	-0.012799392
146	0xbd8148f4	-0.06312743
147	0xbe6f5687	-0.23372851
148	0xbe078aec	-0.13236588
149	0xbe0c842b	-0.13722293
150	0xbe923a34	-0.2856003
151	0xbea6be2c	-0.32566965
152	0xbe70fce2	-0.23533967
153	0xbd4fda05	-0.05074503
154	0xbc5d153c	-0.013493832
155	0xbdfeee63	-0.124478124
156	0xbd907640	-0.070538044
157	0xbda66b8b	-0.08125981
158	0xbc90373e	-0.017604467
159	0xbcbb7f6f	-0.022887914
160	0xbd59227b	-0.0530114
161	0xbda80de6	-0.08205776
162	0xbe3ce7ff	-0.18447874
163	0xbdbf8ad1	-0.09352649
164	0xbd2bac8a	-0.041912593
165	0xbe01f5f3	-0.12691478
166	0xbda9331e	-0.08261703
167	0x3bf58e32	0.0074937576
168	0xbcfe7331	-0.031060787
169	0xbc966589	-0.018358963
170	0x3cde8f2c	0.027167879
171	0x3c242b5c	0.010020103
172	0xbc325867	-0.010885335
173	0x3c372b5b	0.01117977
174	0xbc972b3a	-0.01845323
175	0x3da682e8	0.08130437
176	0xbcd812f7	-0.02637623
177	0x3d8e7649	0.06956155
178	0x39adda3c	0.0003315973
179	0x3c3f7fdd	0.0116882
180	0xbe12ba39	-0.14328851
181	0xbe149dee	-0.1451337
182	0xbd9fcafc	-0.07802388
183	0xbe3045e7	-0.17214166
184	0xbe25f59e	-0.16206977
185	0xbdf215ed	-0.11820588
186	0xbdf9545b	-0.12174293
187	0xbe2d257b	-0.16908829
188	0xbe670296	-0.2255958
189	0xbdce79be	-0.10081814
190	0xbd552df6	-0.052045785
191	0xbdba6402	-0.09101106
192	0xbab9625e	-0.0014143696
193	0xbdab0714	-0.083509594
194	0xbd687389	-0.056750808
195	0xbd6ad0c9	-0.05732802
196	0xbd14c961	-0.036324862
197	0xbde74576	-0.112925455
198	0x3cde8fda	0.027168203
199	0x3c86568e	0.016398694
200	0x3b58ba42	0.0033070003
201	0x3d334928	0.04377094
202	0xbd5b7ff1	-0.05358881
203	0x3c256141	0.010093988
204	0x3c3d4811	0.0115528265
205	0xbc0a1367	-0.008427477
206	0xbcddb4b6	-0.027063709
207	0xbdd35164	-0.103182584
208	0xbe01680b	-0.12637345
209	0xbe6ef73e	-0.23336503
210	0xbce03776	-0.027370196
211	0xbe51b542	-0.204793
212	0xbe56099b	-0.20902102
213	0xbd4709e8	-0.04859343
214	0xbe146b22	-0.14493993
215	0xbe259f5b	-0.1617407
216	0xbb9cf677	-0.004790123
217	0xbd12b8cf	-0.03582078
218	0xbdcfc986	-0.101458594
219	0xbb9d9b08	-0.004809741
220	0xbd679217	-0.056535807
221	0xbdf6ebcc	-0.120566934
222	0xbbdb67ba	-0.006695715
223	0xbd3a83cb	-0.045535844
224	0xbd8eb25d	-0.06967614
225	0x3da7a745	0.08186201
226	0x3c909ed9	0.01765387
227	0x3d99f35b	0.075171195
228	0x3cf6341e	0.030054148
229	0xbcb21e3e	-0.021742936
230	0x3daa052e	0.08301769
231	0x3d85322e	0.06503712
232	0x3d2ee13a	0.04269526
233	0x3d874946	0.06605773
234	0xbd8b70fd	-0.0680866
235	0xbe21c3ac	-0.15797299
236	0xbe487ac0	-0.19578075
237	0xbe44225d	-0.19153734
238	0xbe5ab50f	-0.21358131
239	0xbdf45e5c	-0.1193206
240	0xbe427b0d	-0.18992253
241	0xbe55002c	-0.20800847
242	0xbdf3eada	-0.11910029
243	0x3d992608	0.07477957
244	0x3dc24ae5	0.09486941
245	0xb9f4f504	-0.00046721858
246	0x3d0e19c9	0.03469256
247	0x3d12b185	0.035813827
248	0x3d91e378	0.07123464
249	0x3d242778	0.040076703
250	0x3d1c3760	0.038138747
251	0x3d99f658	0.075176895
252	0xbcc1de2d	-0.023665512
253	0xbcada54f	-0.02119699
254	0xbd01c4fd	-0.031682003
255	0xbcc723df	-0.024309097

conv2.bias f4 [64]
0	0xbb52e6f1	-0.003218111
1	0x3bd83740	0.006598383
2	0xbca10628	-0.019656256
3	0xbd553783	-0.052054893
4	0x3c8830ff	0.016624926
5	0x3e0539eb	0.13010375
6	0x3d6ea7a9	0.058265362
7	0x3dbd8c99	0.092553325
8	0x3d79d02e	0.06098955
9	0x3d7463f9	0.059665654
10	0x3d9b623a	0.075870946
11	0xbd423761	-0.047416095
12	0x3d02e6a9	0.031958256
13	0xbd81f8f9	-0.06346316
14	0x3d2f7a61	0.04284132
15	0x3da5d910	0.08098042
16	0xbd024526	-0.031804226
17	0xbbfdaafd	-0.0077413307
18	0x3db3ff59	0.08788938
19	0x3d7d2749	0.061805043
20	0x3cc9225f	0.024552522
21	0xbd64f325	-0.055895943
22	0x3d78a3a5	0.06070294
23	0xbd928dae	-0.071559295
24	0x3dd57938	0.10423511
25	0x3cdeabc0	0.027181506
26	0x3cb9c816	0.022678416
27	0x3db10882	0.08644201
28	0x3d11e1a7	0.03561559
29	0x3da91fdc	0.0825803
30	0x3d944f13	0.07241645
31	0xbcd29148	-0.025704041
32	0x3d8661ce	0.065616235
33	0xbb4d8dca	-0.003136503
34	0x3d08bb93	0.03338201
35	0x3d0c1de3	0.03420819
36	0x3c3e2506	0.011605507
37	0x3dafe221	0.085880525
38	0x3c149837	0.009069494
39	0xbd2a4c5a	-0.04157672
40	0x3d02075f	0.03174531
41	0x3cc993c9	0.024606602
42	0x3d064ea3	0.032789838
43	0x3d0fd9d2	0.03511984
44	0x3d5067df	0.05088031
45	0xbcd7e445	-0.026353965
46	0x3c91d17e	0.017800089
47	0x3cc531f1	0.024071665
48	0x3d297fa1	0.041381482
49	0x3be9c686	0.0071342615
50	0x3dd0edb1	0.10201586
51	0xbd8cddc4	-0.06878236
52	0x3d1f2a6a	0.03885881
53	0x3d7be96d	0.06150191
54	0xbd0b7010	-0.034042418
55	0x3d4de901	0.050271038
56	0xbd594d3a	-0.053052165
57	0x3dddc70d	0.108289815
58	0x3dc948af	0.098283164
59	0xbcacb49b	-0.021082213
60	0x3da060ea	0.07830985
61	0x3db4fe28	0.08837539
62	0xbb0cd38a	-0.0021488392
63	0x3dc5eddf	0.09664511

fc1.weight f4 [128, 64]
0	0xbc5e6297	-0.01357331
1	0x3d9d45f6	0.076793596
2	0x3c912eb5	0.017722467
3	0xbd20b89d	-0.03923856
4	0xbd620eee	-0.05519002
5	0xbd032a7b	-0.032022934
6	0x3d5e2f7d	0.054244507
7	0x3e1c3163	0.15253215
8	0x3ba6f331	0.0050949086
9	0x3d865ec5	0.065610446
10	0x3e004008	0.12524426
11	0xbd2dfa90	-0.042475283
12	0x3d7643df	0.06012332
13	0xbd4315d0	-0.047628224
14	0x3d02918b	0.03187708
15	0xbce10807	-0.027469648
16	0xbdb58cb4	-0.088647276
17	0xbd0db78d	-0.034598876
18	0x3db21758	0.08695859
19	0x3daaad5e	0.083338484
20	0x3d25a325	0.04043879
21	0xb9995cf3	-0.00029251687
22	0xbdd847e9	-0.10560591
23	0xbc843ee4	-0.01614327
24	0xbd75382f	-0.059868034
25	0xbdcbff21	-0.09960771
26	0x3d11faf5	0.035639722
27	0x3d8cd57a	0.06876655
28	0xbd4f9ea1	-0.05068839
29	0xbd95cbc1	-0.073142536
30	0x3dfeebd8	0.124473274
31	0xbdcb2918	-0.099199474
32	0xbc616b73	-0.013758528
33	0x3d6590b0	0.056046188
34	0x3d676c1c	0.056499586
35	0xbda6f49c	-0.08152124
36	0xbc88b057	-0.016685648
37	0x3e41330b	0.18867128
38	0x3d963ce6	0.07335834
39	0xbd99c534	-0.07508317
40	0x3aa43f78	0.0012531122
41	0xbb8ae3bc	-0.004238574
42	0x3dc787ba	0.09742685
43	0xbdd8a074	-0.10577479
44	0xbda07280	-0.07834339
45	0xbda29e7f	-0.07940387
46	0x3e17ab54	0.1481145
47	0x3dd611e0	0.10452628
48	0x3df95d1b	0.121759616
49	0x3d2cee39	0.042219374
50	0xbde355cf	-0.11100351
51	0x3cffd438	0.031229123
52	0xbee951a7	-0.45570108
53	0x3da6bf30	0.08141935
54	0x3dc0a041	0.09405566
55	0x3d9e64e6	0.077340886
56	0xbd41f2ed	-0.047350813
57	0x3dc15337	0.094397
58	0x3cc22a6c	0.023701869
59	0x3da8edcf	0.082484834
60	0xbd8233f6	-0.06357567
61	0x3e9ca130	0.30591726
62	0xbc57e56f	-0.01317726
63	0x3c8df325	0.017327854
64	0x3dd30098	0.103028476
65	0xbcb65288	-0.02225615
66	0xbd85d342	-0.06534435
67	0xbd2ada50	-0.041712105
68	0xbc7c1180	-0.015385032
69	0xbd211e64	-0.039335623
70	0xbd836dca	-0.06417425
71	0xbd176e9c	-0.03697072
72	0x3d66e6ec	0.056372568
73	0xbd2020e0	-0.039093852
74	0xbda2cb62	-0.079489484
75	0xbc6f1670	-0.014592752
76	0x3d31b4b0	0.043385208
77	0xbd4aaa28	-0.04947868
78	0x3d22f39c	0.039783105
79	0xbcd7b9a8	-0.026333645
80	0xbaed1480	-0.0018087775
81	0xbde1391a	-0.109972194
82	0xbc9cc898	-0.01913862
83	0x39346400	0.0001720339
84	0xbdbb5eec	-0.09148964
85	0xbdd24ff6	-0.102691576
86	0xbdacd53e	-0.0843911
87	0x3c99c7a0	0.018771946
88	0xbb133300	-0.0022460818
89	0xbce15a70	-0.027508944
90	0xbdbff0ba	-0.09372087
91	0xbd9961f6	-0.07489388
92	0x3dc61144	0.09671262
93	0x3dcc874e	0.09986745
94	0xbbb8f8e0	-0.0056449026
95	0xbdd99ac8	-0.10625225
96	0x3b383d40	0.002811268
97	0xbdf9ed18	-0.12203425
98	0xbdf71382	-0.12064268
99	0x3d55e780	0.05222273
100	0xbd1f6f00	-0.038924217
101	0xbd8301a4	-0.06396797
102	0x3c6c1db0	0.014411375
103	0x3cc049e0	0.023472726
104	0xbdf0463c	-0.11732146
105	0xbd1e3cbc	-0.03863214
106	0xbd0399b4	-0.032129005
107	0x3de3a5d2	0.11115612
108	0x3deffe92	0.11718477
109	0x3c687360	0.014187664
110	0xbd94258e	-0.072337255
111	0xbb4a78c0	-0.0030894727
112	0xbdfc760e	-0.12327205
113	0x3ddce64e	0.10786115
114	0xbd63ebcc	-0.055644795
115	0x3c2feaf0	0.010737166
116	0x3d4a65bc	0.049413428
117	0x3db7abfe	0.08968352
118	0xbd8aed4a	-0.067835405
119	0xbd055940	-0.03255582
120	0x3d4e2e54	0.05033715
121	0xbcdb6688	-0.02678229
122	0xbdd7ed4e	-0.10543309
123	0x3d53d5cc	0.051717564
124	0x3d981c22	0.07427241
125	0xbb4b5c00	-0.0031030178
126	0x3dd093c0	0.10184431
127	0xbdffd086	-0.124909446
128	0xbc044ae5	-0.008074497
129	0xbda6383c	-0.081161946
130	0xbd1fa97c	-0.038979992
131	0x3dceeb06	0.10103421
132	0x3d6bcff5	0.05757137
133	0x3d6f697a	0.0584502
134	0x3d5b754f	0.05357867
135	0x3e22fcf5	0.15916808
136	0x3e1375ca	0.14400402
137	0x3dc8cfa8	0.09805232
138	0x3cf8f2c4	0.030389197
139	0x3c098566	0.008393621
140	0x3e072eb0	0.13201404
141	0x3d634967	0.055489924
142	0x3e13b25e	0.1442351
143	0xbadb3fea	-0.0016727422
144	0xbca825ff	-0.02052593
145	0xbd9d5398	-0.0768196
146	0xbdaf08bf	-0.0854659
147	0x3e126926	0.14297923
148	0x3ddf3726	0.108991906
149	0x3ded3735	0.115827955
150	0xbdea6b19	-0.114462085
151	0xbd26e2db	-0.04074369
152	0x3d36a435	0.044590194
153	0xbcda1bf9	-0.026624667
154	0xbdbebfdc	-0.09313938
155	0xbdddf8ce	-0.10838471
156	0xbd80cd64	-0.06289175
157	0xbe13f9e8	-0.144508
158	0xbd9988ab	-0.074967705
159	0x3df16307	0.11786466
160	0x3e0bb467	0.13643037
161	0xbdd03d02	-0.10167886
162	0xbcab5b64	-0.020917602
163	0x3d6bb55c	0.057546005
164	0xbdaf0879	-0.08546538
165	0x3d1a017c	0.03759907
166	0x3d9ca5f7	0.07648843
167	0x3a2284c8	0.00061995955
168	0x3d9b6942	0.07588436
169	0x3d48ef60	0.04905641
170	0x3d099dc1	0.03359771
171	0xbd7749ac	-0.060372993
172	0x3d253a6a	0.04033891
173	0xbdabfe0a	-0.083980635
174	0x3c103746	0.008802241
175	0xbc23cf44	-0.009998146
176	0x3e12f9c8	0.14353096
177	0x3d04b5fa	0.03240011
178	0xbda3b6d7	-0.07993858
179	0x3c7be7e6	0.015375113
180	0xbf080ee6	-0.53147733
181	0x3e039c90	0.12852693
182	0xbd13b977	-0.036065545
183	0x3e151660	0.14559317
184	0x3c982c72	0.01857588
185	0xbd2bdd19	-0.041958902
186	0xbd976440	-0.07392168
187	0xbde85277	-0.11343854
188	0x3e0fc66c	0.14040536
189	0x3e940089	0.28906658
190	0x3e00bd08	0.1257211
191	0x3dcc7bf9	0.099845834
192	0x3c8f5565	0.017496774
193	0xbd431dbe	-0.047635786
194	0x3ded6ed7	0.11593407
195	0x3dcfe1e5	0.10150508
196	0x3d6cae9f	0.05778372
197	0xbddcf208	-0.10788351
198	0x3d60c498	0.054874986
199	0x3d203e52	0.039121933
200	0xbe073f2a	-0.13207689
201	0x3db2d30c	0.0873166
202	0x3d0eeffb	0.034896832
203	0x3d603565	0.05473842
204	0xbda42129	-0.08014137
205	0x3de31fc6	0.11090045
206	0x3deeefd6	0.11666839
207	0xbb0a88b3	-0.0021138608
208	0x3d9cbd58	0.07653302
209	0xbd9cbf2a	-0.07653649
210	0xbdfb6195	-0.12274472
211	0xbd9c5d98	-0.07635039
212	0xbda1493f	-0.07875299
213	0xbd14c16d	-0.036317278
214	0x3d193b78	0.03741023
215	0xbda5bceb	-0.08092674
216	0xbd21e5dd	-0.039525855
217	0x3d0a1e33	0.033720206
218	0xbe083507	-0.13301478
219	0xbe31d2ff	-0.17365645
220	0x3bf0c9b7	0.007348265
221	0x3b2ea4c1	0.0026648494
222	0xbde887b4	-0.11354008
223	0x3cdb0478	0.02673553
224	0xbce9bc9f	-0.028532324
225	0x3d93f050	0.0722357
226	0x3d19bc59	0.037533138
227	0xbd6e6471	-0.058201257
228	0xbdac99d4	-0.08427778
229	0x3b8bc52a	0.004265447
230	0x3dd60a6b	0.10451206
231	0xbde98cc1	-0.114038
232	0xbdbbfc8c	-0.09179029
233	0xbd2fb377	-0.04289576
234	0xbdc646e3	-0.09681489
235	0x3d6274b7	0.05528709
236	0x3d9776a7	0.07395678
237	0xbd9c57bb	-0.07633921
238	0x3d2a36ac	0.041556045
239	0x3c1a8762	0.009431692
240	0xbdf80125	-0.12109593
241	0x3d4d6570	0.050145566
242	0xbdbc414d	-0.09192143
243	0xbc561dde	-0.013068644
244	0x3de0481f	0.10951256
245	0xbe084a55	-0.13309605
246	0xbd75d895	-0.060021
247	0xbc0e9826	-0.008703267
248	0x3d470e9e	0.048597924
249	0x3da728a9	0.08162052
250	0xbddd9dbc	-0.10821101
251	0xb7a1db2b	-1.9294754e-05
252	0xbc8c94e1	-0.017160835
253	0x3d9b0ced	0.07570825
254	0x3d20e20a	0.039278068
255	0xbb636022	-0.003469475

fc1.bias f4 [128]
0	0x3dc6fbd3	0.097160004
1	0xbd90524a	-0.070469454
2	0x3dc15a6a	0.09441073
3	0xbe040c41	-0.128953
4	0xbdc0f2ce	-0.09421311
5	0xbe02b0dc	-0.12762779
6	0xbdd629ae	-0.104571685
7	0xbcc0138b	-0.023446819
8	0xbc97a43d	-0.018510932
9	0xbdd45508	-0.10367781
10	0xbbe9ed88	-0.0071389116
11	0xbe3df01f	-0.1854863
12	0x3db50187	0.08838182
13	0x3ce71256	0.028206985
14	0x3cad9280	0.02118802
15	0xbd10ffb5	-0.03540011
16	0xbd8b3d9b	-0.0679886
17	0x3d84fa00	0.06492996
18	0xbe1458d0	-0.14487004
19	0x3d3b22c1	0.04568744
20	0xbdfa695a	-0.122271255
21	0x3e064936	0.13113865
22	0x3cf5fc01	0.030027391
23	0x3dea096d	0.11427579
24	0xbd596a71	-0.053080026
25	0x3c01d6d0	0.00792475
26	0xbb03316b	-0.002001847
27	0xbc8daf67	-0.017295552
28	0xbdb8f5ee	-0.09031282
29	0xbbea7f8d	-0.0071563185
30	0xbdc83e1d	-0.09777472
31	0xbdb03056	-0.08602969
32	0x3de02cf4	0.10946074
33	0x3cd5b41e	0.026086863
34	0xbd64610c	-0.055756614
35	0x3d15bd7a	0.036557652
36	0xbda66480	-0.081246376
37	0x3d0f5a08	0.03499797
38	0xbdaea2ed	-0.085271694
39	0xbdd6f843	-0.10496571
40	0x3d67ef84	0.056624904
41	0xbdc38b5a	-0.095480636
42	0x3c8a6ae9	0.016896682
43	0xbdeab1b2	-0.11459674
44	0x3cca3194	0.024681844
45	0x3ce709f9	0.028202998
46	0x3d8278d4	0.063707024
47	0xbda53387	-0.08066469
48	0xbdb8d66e	-0.09025274
49	0x3c6986ec	0.014253359
50	0xbdd9dc91	-0.10637773
51	0xbc517804	-0.012784962
52	0x3d25ed01	0.040509228
53	0x3c13f7d6	0.009031257
54	0x3cd71a44	0.026257642
55	0x3d7421d8	0.05960259
56	0x3c40b095	0.01176085
57	0xbdaecbe2	-0.08534981
58	0x3d04da7e	0.032434933
59	0x3d9e0aa9	0.07716877
60	0x3e0dea8f	0.13859008
61	0x3bc50c71	0.006013446
62	0xbc675add	-0.014120785
63	0x3c5383d2	0.012909846
64	0x3db6567d	0.08903215
65	0xbd0b5246	-0.03401401
66	0x3da5326e	0.08066259
67	0xbdc23cd8	-0.09484261
68	0x3d19ce39	0.037550185
69	0x3dc3c5c8	0.09559208
70	0x3d79beac	0.060972854
71	0xbdccced9	-0.100003906
72	0x3cd1d0be	0.025612231
73	0x3d4236ab	0.047415417
74	0x3e11f3b4	0.14253122
75	0xbde9571d	-0.11393569
76	0x3d8868ad	0.0666059
77	0xbdc326e6	-0.09528904
78	0x3dda1b79	0.10649771
79	0xbd97e356	-0.07416408
80	0xbde54e5e	-0.11196588
81	0x3da2d52c	0.079508156
82	0x3db31aff	0.087453835
83	0xbdce25f2	-0.10065831
84	0x3dd3e13a	0.10345693
85	0xbdbaf98c	-0.091296285
86	0xbdd49bd0	-0.103812814
87	0xbdf7c9fd	-0.12099073
88	0xbe0e740c	-0.13911456
89	0xbdd57b6c	-0.104239315
90	0x3bd9c8cc	0.0066462513
91	0xbe0b7756	-0.13619742
92	0x3b631b0f	0.003465358
93	0x3d9f4a29	0.07777817
94	0xbd97d449	-0.07413537
95	0x3e0d58f4	0.13803464
96	0x3def771c	0.1169264
97	0xbce9ee4b	-0.02855601
98	0xbd6162f0	-0.055025995
99	0xbe14a85c	-0.14517349
100	0x3e03a5be	0.12856194
101	0x3db06c7d	0.086144425
102	0xbd152dc4	-0.0364206
103	0x3caeae00	0.021323204
104	0xbd991a97	-0.07475775
105	0xbd3bf544	-0.0458882
106	0x3d1e5815	0.03865822
107	0xbd92e7b8	-0.07173103
108	0xbd6dd6ec	-0.058066294
109	0x3d03e2d6	0.03219875
110	0xbdecea9e	-0.11568187
111	0x3ce7dcaf	0.028303472
112	0x3ccb29d6	0.024800222
113	0x3d1061c7	0.035249498
114	0xbcf59310	-0.029977351
115	0xbc87553c	-0.016520135
116	0x3d2a54f7	0.041584935
117	0xbdb80c5c	-0.08986732
118	0x3d328f8d	0.043593932
119	0xbdd40e48	-0.103542864
120	0x3caf3e3c	0.02139198
121	0xbd93722f	-0.07199513
122	0xbd183970	-0.03716415
123	0xbda70339	-0.081549115
124	0xbdf045d6	-0.1173207
125	0x3dd12943	0.10212948
126	0x3dde3def	0.10851657
127	0xbd65b0a8	-0.056076676

fc2.weight f4 [1, 128]
0	0x3dd623c0	0.104560375
1	0x3daafaef	0.08348643
2	0x3dee1a0d	0.116260625
3	0x3cca860f	0.024722127
4	0xbd08806d	-0.0333256
5	0x3cbb629f	0.022874175
6	0xbc07b1c5	-0.00828213
7	0xbe402996	-0.18765864
8	0xbe95a827	-0.29229853
9	0x3d4ed662	0.05049742
10	0xbd0e986e	-0.034813337
11	0x3ed87c6b	0.42282423
12	0x3e12d853	0.14340334
13	0xbe49f85a	-0.19723645
14	0x3e190c91	0.149462
15	0x3d00c069	0.031433497
16	0x3e08904b	0.13336293
17	0x3dfc1e62	0.123104826
18	0xbe0ef3d7	-0.13960205
19	0x3e3a52c3	0.18195634
20	0xbdfb73c7	-0.12277942
21	0x3e2944b1	0.1653011
22	0xbe67c196	-0.22632441
23	0x3d965634	0.07340661
24	0xbe58beb8	-0.21166503
25	0x3c358158	0.011078201
26	0xbe79708d	-0.24359341
27	0xbe6c01ea	-0.23047605
28	0xbb896540	-0.004192978
29	0xbe440dac	-0.1914584
30	0xbb0e4b3a	-0.002171232
31	0x3e4f499c	0.20242923
32	0x3db0beb6	0.08630125
33	0x3dbe3228	0.0928691
34	0xbcc2e325	-0.023789952
35	0x3e06518b	0.13117044
36	0xbe5177e1	-0.20455886
37	0xbe05d490	-0.13069367
38	0x3d1b1c62	0.037868865
39	0x3cd5af05	0.026084432
40	0x3e43802a	0.1909186
41	0x3e1cee6c	0.15325326
42	0x3dcfe2a1	0.10150648
43	0xbe337566	-0.17525253
44	0x3da1a482	0.078927055
45	0x3e3be12f	0.1834762
46	0x3df0f706	0.11765866
47	0x3a66eeee	0.0008809407
48	0xbe360992	-0.17777088
49	0xbe807008	-0.25085473
50	0xbc1c1574	-0.009526599
51	0xbe2fe705	-0.1717797
52	0x3e2828c0	0.16421795
53	0xbe427e9c	-0.1899361
54	0xbe545bd8	-0.2073816
55	0xbe2df8d4	-0.16989452
56	0xbe595074	-0.21222097
57	0x3b8c5845	0.0042829835
58	0xbe5b26c0	-0.214015
59	0xbd5859b8	-0.052819937
60	0x3db45054	0.08804384
61	0xbd487f0e	-0.048949294
62	0xbb644495	-0.0034830917
63	0xbe57d8c6	-0.21078786
64	0x3e1f918c	0.15582865
65	0xbdcb1f63	-0.09918096
66	0x3e22ec64	0.15910488
67	0xbe4d491b	-0.20047419
68	0x3d8da837	0.0691685
69	0xbdf2e7fe	-0.11860655
70	0x3d0485bc	0.0323541
71	0xbe744098	-0.23852766
72	0x3e053fb7	0.13012587
73	0xbe730da5	-0.23735674
74	0x3e3eb72d	0.18624564
75	0xbe56053c	-0.20900434
76	0xbe171ae0	-0.14756346
77	0x3ccdfe87	0.025145782
78	0xbca19a61	-0.019726934
79	0x3d17172a	0.036887325
80	0xbbe89821	-0.0070982133
81	0x3e096924	0.13419014
82	0xbe2671db	-0.1625437
83	0x3db166b9	0.08662171
84	0x3dc8f1c8	0.09811741
85	0x3c8aad14	0.016928233
86	0xbe6af516	-0.22945055
87	0xbe69e05a	-0.2283949
88	0xbe4646c4	-0.19362932
89	0x3c0e6077	0.008689991
90	0xbe7a871d	-0.24465604
91	0xbb955fc8	-0.004558537
92	0x3de1da8c	0.11028013
93	0xbe38e615	-0.1805652
94	0x3c4b7ffb	0.01242065
95	0x3ec5eab8	0.3865564
96	0x3d8a30d2	0.06747593
97	0xbe4c568d	-0.19954892
98	0x3f0b0110	0.54298496
99	0x3c6d4fc8	0.014484353
100	0x3dfafa51	0.12254775
101	0x3dba8a00	0.09108353
102	0x3cdef1e0	0.027214944
103	0x3dcb2bf4	0.09920493
104	0x3ef992db	0.48744854
105	0x3de25d78	0.11052984
106	0xbc357f0d	-0.011077655
107	0xbe4958b9	-0.19662751
108	0xbc958568	-0.01825209
109	0xbd9919ea	-0.07475646
110	0xbbaacc91	-0.0052123745
111	0xbe6afe2f	-0.22948526
112	0x3dcde272	0.10052957
113	0x3e1b14f1	0.15144707
114	0xbd996661	-0.0749023
115	0x3e814c7e	0.2525367
116	0x3bf4c1b1	0.007469379
117	0x3e04942f	0.12947153
118	0x3de329ab	0.11091932
119	0x3c4ea847	0.012613363
120	0xbe64305d	-0.22284074
121	0xbd719669	-0.058981333
122	0x3d1d5f6a	0.038421072
123	0xbdf7fe25	-0.12109021
124	0x3d74c820	0.059761167
125	0xbe4e1c8e	-0.2012808
126	0x3e09184f	0.13388179
127	0x3d0d5c44	0.03451182
